HW1/models/model.ckpt (torch, 10484 bytes, 5 tensors)

layers.0.weight f4 [16, 116]
0	0xbe8a82bf	-0.27052876
1	0x3db3c967	0.08778649
2	0x3d7c1a24	0.061548367
3	0xbb4ad1f6	-0.00309479
4	0x3da25949	0.07927186
5	0x3c999ee7	0.018752528
6	0xbcb44846	-0.022007119
7	0x3d0bfa16	0.034174047
8	0x3d2ec25a	0.042665817
9	0x3c57ae56	0.0131641235
10	0xbc921ade	-0.017835077
11	0xbc8770d6	-0.016533297
12	0xbc8874c9	-0.01665725
13	0xbc6c0e9c	-0.01440778
14	0x3caa07a1	0.02075559
15	0x3c5affe6	0.013366675
16	0x3d466621	0.04843724
17	0x3cacfa5e	0.021115478
18	0x3db8b72c	0.09019312
19	0x3d897c53	0.06713166
20	0x3d8a9646	0.06766944
21	0xbd6e08b7	-0.05811378
22	0x3d863dc0	0.06554747
23	0x3d974a40	0.07387209
24	0x3d7912cf	0.060808953
25	0xbd2dcf6a	-0.042434134
26	0x3d531727	0.05153575
27	0x3d91b5cd	0.07114754
28	0xbdb7a775	-0.08967487
29	0x3d84a2f9	0.06476397
30	0x3d642e86	0.05570843
31	0xbda8110a	-0.08206375
32	0xbc474a73	-0.012163746
33	0xbcee36eb	-0.029078921
34	0xbc6fabe1	-0.0146283815
35	0x3d20e583	0.03928138
36	0xbcc01370	-0.023446769
37	0xbd9320a0	-0.07183957
38	0x3d18747c	0.037220463
39	0x3d4ca2a8	0.04995981
40	0xbce3d78c	-0.027812742
41	0x3da58a54	0.080830246
42	0xbd48c653	-0.04901726
43	0xbd98e0fb	-0.074647866
44	0xbdabb13f	-0.083834164
45	0xbdd64016	-0.10461442
46	0x3d50f1b6	0.051011764
47	0xbd410b1f	-0.047129747
48	0x3cd4c98e	0.025975015
49	0xbd898f85	-0.06716827
50	0xbd91704a	-0.071014956
51	0x3d81b26c	0.063328594
52	0x3ca31a83	0.019910103
53	0xbd3db075	-0.04631086
54	0x3d41f5f5	0.047353704
55	0xbd5e6776	-0.054297887
56	0xbc9e9f52	-0.01936308
57	0xbd9a495e	-0.07533525
58	0xbbf349e5	-0.0074245804
59	0xbca57456	-0.020197075
60	0xbdacd16e	-0.08438383
61	0xbdd427af	-0.103591315
62	0xbd2f571c	-0.042807683
63	0xbb825d10	-0.003978379
64	0xbd5c1668	-0.053732306
65	0xbd8ed1e3	-0.069736265
66	0x3d2dcdf2	0.042432733
67	0x3c7d7422	0.015469583
68	0x3d95b394	0.073096424
69	0x3d879e50	0.066219926
70	0x3d263f92	0.04058797
71	0x3d677066	0.056503676
72	0xbdaff107	-0.08590894
73	0xbd835705	-0.06413082
74	0x3d02437d	0.031802643
75	0x3da93cd0	0.08263552
76	0x3d41f361	0.047351245
77	0xbd84906a	-0.06472857
78	0x3d4aee11	0.049543444
79	0xbde9dc92	-0.114190236
80	0x3cbec902	0.023289207
81	0xbcaf784f	-0.021419672
82	0x3d579942	0.052636392
83	0x3da1620b	0.07880028
84	0x3d928363	0.07153966
85	0x3da33da9	0.07970745
86	0x3d5c6ebc	0.053816542
87	0xbcd14e73	-0.025550103
88	0xbc81f1fe	-0.015862461
89	0xbcf602d8	-0.030030653
90	0x3d037727	0.032096054
91	0xbb6c9065	-0.0036096808
92	0xbd7fb192	-0.062425204
93	0xbd90e064	-0.07074049
94	0xbced54ec	-0.028971158
95	0x3c733e8b	0.014846454
96	0x3d8221d2	0.06354107
97	0x3c24c710	0.010057226
98	0xbd93d048	-0.07217461
99	0x3d361cde	0.044461124
100	0xbd7f1654	-0.062277153
101	0x3d3711c6	0.044694684
102	0x3d481755	0.048850376
103	0x3bab0dd9	0.0052201566
104	0xbc973c8c	-0.018461488
105	0x3c4da67e	0.012551902
106	0x3c708486	0.014680034
107	0x3d8bbc2c	0.06823
108	0xbd5ce20e	-0.05392652
109	0x3d2409c3	0.040048372
110	0xbc22164e	-0.009893013
111	0x3b426ecb	0.0029668089
112	0xbd9e6c50	-0.07735503
113	0x3bdac1cb	0.006675934
114	0x3da042f0	0.07825267
115	0x3d1abc2d	0.037777115
116	0xbdff147d	-0.1245508
117	0xbc9c001e	-0.019043025
118	0x3cb45dd9	0.022017406
119	0x3d9556bd	0.07291935
120	0x3db69076	0.089142725
121	0xbbbe584f	-0.005808867
122	0x3c9534cc	0.018213652
123	0xbc205590	-0.009786025
124	0x3d502135	0.05081292
125	0xbd314f60	-0.04328859
126	0x3d6b55d9	0.057454918
127	0x3c8340b3	0.016022062
128	0xbb8b0d87	-0.004243556
129	0x3ca70871	0.020389767
130	0x3d857ddf	0.06518149
131	0xbcefb0ba	-0.029259074
132	0xbdba6d8c	-0.09102926
133	0xbb3a3a9b	-0.002841628
134	0xbd9356fb	-0.071943246
135	0x3d79ab78	0.06095454
136	0x3dbca1a6	0.092105195
137	0x3cd16cca	0.02556457
138	0x3dbcc1fe	0.092166886
139	0x3d79738a	0.060901202
140	0xbd19ef71	-0.037581865
141	0x3d9b12d3	0.0757195
142	0xbda98f36	-0.082792684
143	0xbd984be0	-0.07436347
144	0xbd4ac642	-0.04950548
145	0xbd18b8df	-0.03728568
146	0x3c5109c2	0.012758674
147	0x3d0f7708	0.035025626
148	0x3dbcc0a7	0.09216433
149	0xbbd65e16	-0.0065419776
150	0xbd4f5899	-0.050621603
151	0x3ce7e350	0.028306633
152	0x3c055d4f	0.008139922
153	0xbd71576d	-0.058921266
154	0xbc23fdc1	-0.01000923
155	0xbd177629	-0.03697792
156	0x3d543a4c	0.05181341
157	0x3d541211	0.051775042
158	0x3d5bced1	0.053664032
159	0x3d110abb	0.035410624
160	0xbce16aa6	-0.027516674
161	0x3d96584b	0.07341059
162	0x3d0f8c84	0.035046116
163	0x3c98407c	0.018585436
164	0xbd84d869	-0.064865895
165	0xbcbc21f7	-0.022965414
166	0x3d2e6467	0.04257622
167	0x3d9fb2d4	0.07797781
168	0xbd95c0ec	-0.073121876
169	0xbce556c7	-0.02799548
170	0xbc9853ad	-0.018594587
171	0xbd083789	-0.033256087
172	0xbd0629a3	-0.03275455
173	0xbd107e44	-0.035276666
174	0x3c9d232f	0.019181816
175	0x3d560224	0.052248135
176	0x3d8b7893	0.06810107
177	0x3d257ee7	0.040404227
178	0x3c23d63c	0.009999808
179	0xbc67d210	-0.014149204
180	0x3d4b7fa3	0.04968227
181	0x3bcd1282	0.00625831
182	0x3d66eede	0.056380145
183	0xbd00cd97	-0.031446066
184	0xbd0714b6	-0.032978736
185	0x3c3f16db	0.011663164
186	0x3d74a888	0.059731036
187	0xbd73ceac	-0.05952327
188	0xbcbfcb6a	-0.023412425
189	0xbc9b0be4	-0.018926568
190	0xbd3c981b	-0.046043497
191	0x3d851b8a	0.06499393
192	0xbd0fde9a	-0.0351244
193	0xbd182bea	-0.037151255
194	0x3d44b209	0.04802135
195	0x3cc1a30c	0.023637317
196	0xbccd6fc2	-0.025077704
197	0xbd190b26	-0.037364148
198	0x3d945905	0.07243542
199	0x3d6b434f	0.057437237
200	0x3dc4778c	0.09593114
201	0x3d97d086	0.074128196
202	0x3dab9099	0.08377189
203	0xba2abf87	-0.0006513525
204	0xba58ae69	-0.0008265735
205	0xbd5de0f5	-0.054169614
206	0x3dafa69c	0.085767
207	0x3d38028d	0.044924308
208	0x3bda4778	0.006661352
209	0x3d8d0c72	0.068871394
210	0xbda55ad3	-0.08073964
211	0x3d945df7	0.07244485
212	0xbd20d2c8	-0.039263517
213	0xbd93af2a	-0.07211144
214	0xbd18743c	-0.037220225
215	0x3db5108e	0.08841048
216	0x3d2cfbe2	0.0422324
217	0xbda30f91	-0.079619534
218	0xbca6c70a	-0.020358581
219	0x3cad484d	0.02115264
220	0x3d9232e6	0.07138614
221	0x3d61f446	0.055164598
222	0x3be0a214	0.0068552587
223	0x3ca8fb60	0.020627677
224	0xbcef364b	-0.029200694
225	0x3d50132d	0.050799537
226	0x3d39003a	0.04516623
227	0xbd891175	-0.06692783
228	0x3d9bad80	0.07601452
229	0x3d7972e8	0.0609006
230	0x3d305d74	0.043057874
231	0x3d737663	0.059439074
232	0xbdc21b80	-0.094779015
233	0x3c8daeb8	0.017295226
234	0xbccd80a8	-0.025085762
235	0xbda7afaa	-0.08187802
236	0xbc81df3d	-0.015853519
237	0xbcf4d934	-0.029888727
238	0x3d3dcb44	0.046336427
239	0x3d96700d	0.07345591
240	0x3d919f41	0.071104534
241	0xb8bcd56b	-9.004291e-05
242	0xbd0bc2fd	-0.034121502
243	0x3d534cef	0.05158704
244	0xbd9be622	-0.07612254
245	0x3bb0b5d3	0.005392769
246	0xbd724d62	-0.05915583
247	0x3bb8a60c	0.0056350287
248	0xbd71c61b	-0.05902682
249	0xbc358b22	-0.011080535
250	0xbd24c864	-0.04023017
251	0x3a1dadbb	0.00060149626
252	0x3b5c9840	0.0033660084
253	0xbd9292b4	-0.07156888
254	0x3d411a26	0.047144078
255	0x3d9e691c	0.07734892

layers.0.bias f4 [16]
0	0x3db7a54d	0.089670755
1	0x3cfbb72d	0.030726993
2	0x3dbe1854	0.09281984
3	0x3bbfb011	0.005849846
4	0x3dbba99d	0.091632105
5	0x3d80938f	0.062781446
6	0x3d07eeb7	0.03318664
7	0x3d9fde47	0.07806068
8	0x3d28d732	0.04122085
9	0x3d7813d2	0.060565777
10	0x3d056819	0.03256998
11	0x3dab3019	0.08358783
12	0xbd512656	-0.05106195
13	0x3d0cbcfe	0.034359924
14	0xbd5d41c7	-0.05401781
15	0x3c3f0dbf	0.011660992

layers.2.weight f4 [8, 16]
0	0x3d0d91f7	0.03456303
1	0x3df82c18	0.12117785
2	0xbe641444	-0.22273356
3	0xbe12a070	-0.14319015
4	0xbd9b81df	-0.0759313
5	0xbe76c0f2	-0.2409704
6	0xbe6fc9a6	-0.23416767
7	0xbe417124	-0.18890816
8	0x3ded2e72	0.11581124
9	0xbd986ec7	-0.07443004
10	0xbe7b02f3	-0.24512844
11	0xbe2765a7	-0.16347371
12	0x3ddf6571	0.1090802
13	0x3e0eef16	0.13958392
14	0x3e32ea7e	0.17472264
15	0xbe05b47a	-0.13057128
16	0x3d7d9bfc	0.061916336
17	0x3db2a98c	0.08723745
18	0xbdbc1966	-0.09184532
19	0xbd72faf4	-0.05932136
20	0x3caa0ee5	0.020759055
21	0x3e300a52	0.17191437
22	0xbdb15f46	-0.0866075
23	0x3e14c75e	0.14529178
24	0x3db53ac8	0.08849102
25	0xbe228481	-0.15870859
26	0x3d773cba	0.060360648
27	0xbe5635cb	-0.20918958
28	0xbe0635f9	-0.13106526
29	0xbd89b278	-0.06723493
30	0xbe1902e0	-0.14942503
31	0x3d4818b2	0.048851676
32	0xbb86e507	-0.0041166577
33	0x3df7c59b	0.12098237
34	0x3e4c1530	0.19929957
35	0x3e75dd5d	0.24010225
36	0x3df7134f	0.1206423
37	0x3e3fdf4a	0.18737522
38	0x3e31c2f1	0.1735952
39	0xbd47de8e	-0.04879623
40	0x3dd521b4	0.10406819
41	0xbd6d8c16	-0.057994924
42	0x3d16e050	0.036835015
43	0x3cb32ad6	0.021871012
44	0x3c9df89d	0.019283587
45	0x3cf1e254	0.029526867
46	0x3ca39fb0	0.019973606
47	0x3e263c7e	0.16234013
48	0x3e5312fc	0.2061271
49	0x3b20eef5	0.0024556492
50	0x3cee01f3	0.029053664
51	0xbe5a712a	-0.21332231
52	0xbdb7ee07	-0.08980947
53	0x3df2e514	0.118600994
54	0xbe805f68	-0.2507279
55	0x3e2c6d9d	0.16838689
56	0x3dca1d48	0.09868866
57	0x3dfd265c	0.12360832
58	0x3d44e671	0.04807133
59	0x3f00e441	0.5034829
60	0x3bee6945	0.0072757327
61	0xbe756bcf	-0.23966907
62	0xbe79eb18	-0.24406087
63	0x3e8f4911	0.27985433
64	0x3de2cca9	0.11074192
65	0x3d885144	0.06656125
66	0x3da4cfbc	0.08047435
67	0xbe371fdd	-0.17883249
68	0x3dc4bab4	0.09605923
69	0x3b15d180	0.0022860467
70	0xbdae93c8	-0.08524281
71	0x3d0602b0	0.032717407
72	0x3d9f813f	0.077883236
73	0xbd06fea9	-0.032957707
74	0x3d92e563	0.07172658
75	0xbe2e73d4	-0.17036372
76	0xbdd6675c	-0.10468933
77	0x3e17f994	0.148413
78	0xbe02ebb2	-0.12785223
79	0x3de31f73	0.11089983
80	0x3da18f3b	0.07888647
81	0x3d9e799c	0.07738039
82	0x3bf2a801	0.0074052815
83	0x3e657571	0.22408082
84	0xbde82e07	-0.11336904
85	0xbe02577e	-0.12728688
86	0x3d9d58a0	0.076829195
87	0x3d607c5b	0.054806095
88	0x3d3e6da5	0.046491284
89	0x3c453b8d	0.012038124
90	0xbe62259b	-0.22084658
91	0x3df5b6e4	0.11997774
92	0x3d2569a2	0.040383942
93	0xbca30b1d	-0.01990276
94	0xbbaaa080	-0.0052071214
95	0xbe21c3ba	-0.1579732
96	0xbe4b043b	-0.19825833
97	0x3e419b07	0.18906794
98	0x3dea356f	0.11435973
99	0x3e183a2b	0.1486594
100	0x3dee3674	0.1163148
101	0x3de3caf0	0.11122692
102	0x3dd527f9	0.10408015
103	0xbd228642	-0.03967882
104	0xbd8557d2	-0.06510891
105	0xbdb69459	-0.08915014
106	0x3d106be6	0.03525915
107	0x3edfed80	0.43735886
108	0xbbda685c	-0.0066652726
109	0x38b38ed0	8.561986e-05
110	0xbe19c0e6	-0.15014991
111	0x3dc6474c	0.096815675
112	0x3e59a7e2	0.21255448
113	0xbe529235	-0.20563586
114	0x3e424206	0.18970498
115	0xbe3b31ba	-0.18280688
116	0x3e4b195d	0.19833894
117	0x3e0d6316	0.1380733
118	0xbe1bac57	-0.15202461
119	0xbd4f09b0	-0.050546348
120	0x3e330cf1	0.17485406
121	0xbdcbf0b9	-0.099580236
122	0xbd6a371c	-0.057181463
123	0xbe62d4cd	-0.2215149
124	0x3e74a707	0.23891841
125	0x3e452a09	0.19254316
126	0x3e2453d8	0.16047609
127	0xbdc0cd5c	-0.09414169

layers.2.bias f4 [8]
0	0x3e7208c2	0.23636153
1	0x3dd1c14d	0.10241947
2	0xbde81bea	-0.11333449
3	0xbde6c67a	-0.11268325
4	0xbe23d3c7	-0.15998755
5	0xbd7be4ff	-0.061497685
6	0xbe38cab3	-0.18046074
7	0x3e45b133	0.19305877

layers.4.weight f4 [1, 8]
0	0xbe132d90	-0.1437285
1	0x3d4fec45	0.050762434
2	0x3d0a4b20	0.03376305
3	0x3f0a25bf	0.53963846
4	0x3cbbc56c	0.022921287
5	0x3e599dc5	0.2125159
6	0x3ea52853	0.32257327
7	0xbc23cff2	-0.0099983085
